models/checkpoints/best_model.pth (torch, 228789 bytes, 24 tensors)

network.0.weight f4 [64, 6]
0.16036458 0.10209455 0.1271109 0.18340823 -0.09950894 -0.2436806 0.22238208 -0.112290174
0.079176776 -0.31521824 -0.02414453 -0.20021777 -0.010119751 -0.1889466 0.06410917 0.02999938
0.22815862 0.026850628 0.17841089 0.103462204 -0.20343627 0.16423514 0.087047435 0.26200095
-0.28790435 -0.2788954 -0.13665771 0.007234335 0.28238595 -0.1815427 -0.26885307 -0.25991777
-0.12632641 0.1994746 -0.052465037 0.0687775 -0.094986856 -0.2928913 0.24880968 -0.24006464
0.2291516 0.1343412 -0.29070064 0.13890181 0.26232475 -0.21067445 0.2886903 0.19665976
0.21547736 0.07153179 0.2279819 -0.24349394 0.26754272 0.28979647 -0.18654387 0.2649801
0.23063932 0.20163694 -0.14826113 -0.18291575 -0.03855781 0.30540928 -0.15855335 0.063078895
0.12230838 -0.08859281 -0.048246846 -0.13159655 -0.005083382 -0.12965366 -0.12849227 -0.14285451
-0.048241753 -0.058658708 0.22397648 0.11360419 -0.25673568 0.22617455 0.14981253 -0.046921726
0.17767039 -0.10132984 -0.17235167 0.04190115 -0.027063929 0.14095865 0.10553035 -0.03047453
-0.091642655 0.27590048 -0.10024626 -0.019021919 -0.048656695 0.21851285 0.016480898 0.07212675
0.12439699 0.22164264 0.100070745 0.046295393 0.27203822 0.20406307 0.061606154 0.21794924
-0.019824008 -0.18892412 -0.16448216 0.18742834 0.07875329 -0.19821614 -0.03497356 -0.050810352
-0.1913543 -0.16705815 -0.24667808 0.089238316 -0.18584827 -0.1724435 -0.20319602 -0.14342207
0.2793248 -0.057249255 -0.051631153 0.16835915 0.23863038 -0.14513953 0.16224663 -0.04754128
0.22343792 -0.14118324 -0.17294474 0.24431176 -0.11019267 0.12639463 0.16921492 -0.14422904
-0.20477678 -0.1862911 0.08127811 0.067224964 0.14390762 0.29673427 -0.14682142 0.19067928
0.0005674266 0.072917484 -0.30403423 -0.21766926 0.25321108 0.053556774 -0.05163014 -0.28085166
-0.048076347 -0.18176526 0.04938245 0.2304228 0.09481612 0.25514087 0.12839746 -0.12997411
-0.14347352 0.035467893 -0.16963275 -0.100518316 0.22913931 -0.22818032 -0.068067804 0.2628162
0.01820997 0.20469502 -0.0253452 -0.22959942 0.2842545 0.033137247 -0.16459407 -0.013185084
-0.24601188 -0.030481368 -0.115976036 0.08934617 -0.20720233 -0.1846531 0.20030804 0.023628257
0.20509657 -0.25791222 -0.21037342 -0.05310235 0.0013662045 0.20855753 0.06476188 0.20541538
0.09094471 -0.051317334 -0.016126275 -0.07197351 0.0047238814 0.03364388 0.1275339 0.2612577
-0.23815341 0.12106174 -0.17262955 0.26744574 -0.07651365 0.06198069 0.17965092 0.23048702
0.25899863 0.21279578 0.22345883 0.22184773 -0.25299534 -0.0150044905 -0.2472338 0.30635977
0.08139595 0.020777859 -0.12569687 -0.27333906 -0.29973 0.14207542 -0.09903154 0.061989516
-0.25620708 -0.05204615 0.103185564 0.0050272644 -0.06474676 -0.26039422 0.10172752 -0.12744896
0.24168785 0.2437182 0.22628666 0.12084298 0.23577303 -0.24373141 0.004356433 -0.28245467
-0.21378167 -0.23334119 0.038732022 0.23196238 -0.051330477 -0.1972765 0.21579234 0.24378085
0.056652274 -0.03698322 -0.2539973 0.2722919 -0.2252788 -0.25115404 -0.26122373 -0.1730864
00000000: 9d36 243e f316 d13d 5c29 023e 5ecf 3b3e
00000010: 58cb cbbd 6887 79be 21b8 633e 64f8 e5bd
00000020: 6f27 a23d 4964 a1be c0ca c5bc e305 4dbe
00000030: 50cd 25bc 387b 41be ab4b 833d 43c1 f53c
00000040: 6aa2 693e d9f5 db3c 58b1 363e fee3 d33d
00000050: 9951 50be 422d 283e ed45 b23d fd24 863e
00000060: 3368 93be 61cb 8ebe 00f0 0bbe 000e ed3b
00000070: e494 903e 54e6 39be 1ca7 89be f113 85be
00000080: b65b 01be 1243 4c3e 94e5 56bd 38db 8c3d
00000090: 7888 c2bd d9f5 95be f7c7 7e3e 81d3 75be
000000a0: b8a6 6a3e bd90 093e b7d6 94be 473c 0e3e
000000b0: 6e4f 863e 0bbb 57be 37cf 933e 2d61 493e
000000c0: 19a6 5c3e 427f 923d 1674 693e 7a56 79be
000000d0: 5cfb 883e 3460 943e 5b05 3fbe 79ab 873e
000000e0: b72c 6c3e ea79 4e3e c4d1 17be 444e 3bbe
000000f0: cbee 1dbd 9b5e 9c3e cf5b 22be 822f 813d
00000100: d17c fa3d 2670 b5bd 7c9e 45bd 3fc1 06be
00000110: 8092 a6bb eec3 04be 7a93 03be 7448 12be
00000120: 2599 45bd 1d44 70bd 175a 653e 50a9 e83d
00000130: dc72 83be 4d9a 673e 7568 193e ff30 40bd
00000140: 3aef 353e 0586 cfbd f57c 30be 8aa0 2b3d
00000150: 2cb5 ddbc 7757 103e 4c20 d83d b9a5 f9bc
00000160: 25af bbbd d442 8d3e e94d cdbd dbd3 9bbc
00000170: 3e4c 47bd d5c1 5f3e f302 873c 31b7 933d
00000180: d9c3 fe3d 4af6 623e e4f1 cc3d 3da0 3d3d
00000190: 9848 8b3e e9f5 503e bc56 7c3d 162e 5f3e
000001a0: f565 a2bc 5375 41be 036e 28be 37ed 3f3e
000001b0: 6849 a13d 2cf9 4abe 7040 0fbd 841e 50bd
000001c0: 62f2 43be 4b11 2bbe 2e99 7cbe 94c2 b63d
000001d0: 024f 3ebe 0795 30be 9e12 50be 3cdd 12be
000001e0: a903 8f3e 327e 6abd 307b 53bd 5766 2c3e
000001f0: 865b 743e 759f 14be fb23 263e a5ba 42bd
00000200: e9cc 643e 5792 10be 6d18 31be dd2c 7a3e
00000210: b2ac e1bd 986d 013e ad46 2d3e c7b0 13be
00000220: 01b1 51be 18c3 3ebe 2375 a63d 3ead 893d
00000230: 855c 133e 8eed 973e 5b58 16be 6e41 433e
00000240: 5bbf 143a c355 953d 60aa 9bbe b1e4 5ebe
00000250: e2a4 813e 595e 5b3d 207a 53bd cacb 8fbe
00000260: b4eb 44bd ac20 3abe 4045 4a3d f4f3 6b3e
00000270: f42e c23d d3a1 823e a07a 033e ef17 05be
00000280: b9ea 12be c846 113d 35b4 2dbe 8cdc cdbd
00000290: 7fa3 6a3e 1aa8 69be 2267 8bbd d88f 863e
000002a0: 132d 953c 929b 513e bda0 cfbc 1c1c 6bbe
000002b0: ce89 913e ecba 073d 598b 28be 4006 58bc
000002c0: 8aea 7bbe 10b4 f9bc d884 edbd 20fb b63d
000002d0: d92c 54be b415 3dbe 8d1d 4d3e 0c90 c13c
000002e0: d604 523e 120d 84be 216c 57be da81 59bd
000002f0: 3712 b33a 1b90 553e e0a1 843d 6958 523e
00000300: 3841 ba3d 2032 52bd 401b 84bc d966 93bd
00000310: caca 9a3b 2ace 093d 3f98 023e 92c3 853e
00000320: 7dde 73be 38ef f73d cdc5 30be a6ee 883e
00000330: 30b3 9cbd 77df 7d3d 69f6 373e ca04 6c3e
00000340: 789b 843e 23e7 593e 64d2 643e 0d2c 633e
00000350: 9b88 81be 65d5 75bc db2a 7dbe 30db 9c3e
00000360: ebb2 a63d 5436 aa3c aeb6 00be 19f3 8bbe
00000370: 3676 99be 387c 113e 0cd1 cabd b8e8 7d3d
00000380: 932d 83be 582e 55bd f452 d33d c0bb a43b
00000390: f399 84bd 6452 85be 8556 d03d fb81 02be
000003a0: 057d 773e 4491 793e b1b7 673e 867c f73d
000003b0: 7c6e 713e ba94 79be 69c0 8e3b e69d 90be
000003c0: 95e9 5abe fef0 6ebe 78a5 1e3d 8c87 6d3e
000003d0: e83f 52bd da02 4abe abf8 5c3e b0a1 793e
000003e0: 370c 683d b87b 17bd ef0b 82be d869 8b3e
000003f0: 7caf 66be 4397 80be 1ebf 85be 903d 31be

network.0.bias f4 [64]
0.03755842 0.2601553 0.17476593 0.053255156 0.0 0.0 0.0179942 0.018978667
0.031494007 0.03321484 0.17492864 0.0 0.022368742 0.029493587 0.024144737 0.17434308
0.011950925 0.026040288 0.0 0.0 0.031214073 -0.006383489 0.229654 -0.06665236
-0.027029937 0.0 0.028507367 0.0021898928 0.025068045 0.0 -0.026672518 0.23537073
0.0672573 0.06049213 -0.0042569675 0.07106537 -0.026122084 0.0 0.03452925 0.03162329
0.0 0.027077004 0.0 0.016025404 0.062180005 0.0 0.066474594 0.03610683
0.0 0.21679217 0.23634699 0.02014637 0.0021938866 0.0 0.0 0.0
0.04097588 -0.050637376 0.03663115 0.13693218 0.0 0.02231543 -0.027678698 0.0
00000000: dcd6 193d 1333 853e d7f5 323e 1422 5a3d
00000010: 0000 0000 0000 0000 9368 933c 2679 9b3c
00000020: dcff 003d 490c 083d 7e20 333e 0000 0000
00000030: a73e b73c 899c f13c 2fcb c53c fe86 323e
00000040: d0cd 433c 7152 d53c 0000 0000 0000 0000
00000050: a8b4 ff3c 962c d1bb 6b2a 6b3e 0881 88bd
00000060: e36d ddbc 0000 0000 4888 e93c 4e84 0f3b
00000070: 805b cd3c 0000 0000 5380 dabc 0605 713e
00000080: 32be 893d 99c6 773d 087e 8bbb b98a 913d
00000090: fbfd d5bc 0000 0000 8b6e 0d3d 6c87 013d
000000a0: 0000 0000 98d0 dd3c 0000 0000 b547 833c
000000b0: 76b0 7e3d 0000 0000 d523 883d c1e4 133d
000000c0: 0000 0000 c4fe 5d3e f204 723e 000a a53c
000000d0: 4fc7 0f3b 0000 0000 0000 0000 0000 0000
000000e0: 53d6 273d 2369 4fbd 8b0a 163d f337 0c3e
000000f0: 0000 0000 d9ce b63c 70be e2bc 0000 0000

network.2.weight f4 [128, 64]
-0.11260829 -0.23849718 -0.04937668 -0.15005764 -0.09762645 0.11287521 0.08787565 -0.07604773
0.1273922 -0.13415816 0.013528183 0.107663855 -0.0779939 0.035997547 0.114536785 -0.14474472
-0.005653524 0.026534403 -0.06807378 0.16936095 -0.118184455 -0.050270975 0.052115735 -0.028161192
-0.05011817 -0.03136058 -0.16167383 0.13258402 -0.18700226 0.04200685 0.12088393 -0.027017782
-0.09888874 -0.034114763 0.024060866 -0.072077036 -0.009732792 -0.08327195 0.029773278 -0.15095152
-0.09947313 -0.031885 0.10753037 0.08496154 0.020749638 0.16669594 -0.026959455 0.03634376
-0.12844533 0.041489642 0.0359869 -0.072878934 -0.0965912 0.13792627 0.13481842 0.16639031
0.13359249 -0.040633302 -0.14436848 -0.16604255 -0.17405002 -0.0031446484 0.15361547 0.10399102
-0.18271297 0.06636014 -0.039962903 0.11843121 -0.0679934 0.02392736 0.16381764 0.09744958
0.035069738 -0.06405174 -0.031023167 0.09266855 0.058206037 -0.18245505 -0.11087094 -0.14359385
-0.103019096 0.050635282 0.010278225 0.050084278 -0.1684046 0.08984334 0.0991539 0.11147771
0.10600615 0.08456834 0.08330999 0.029567432 -0.031776704 -0.026748687 0.07765004 -0.0005749418
0.12533003 -0.062010366 0.0049608764 -0.07799748 0.12344145 0.12770523 -0.0123529 0.042848546
0.14620785 -0.09222077 -0.17060246 0.021996288 0.1353782 0.0051671565 -0.12820938 -0.123098
0.0012706071 0.010782949 -0.14140111 0.14424203 -0.05904087 -0.13517183 0.15269141 0.1710685
0.12552959 -0.021515507 0.14611113 -0.16088982 0.08682738 -0.14248805 -0.122672535 -0.0036355853
-0.097291104 0.20254287 0.03325109 0.071814686 -0.05000189 0.056528613 0.045468304 0.032294378
-0.019120757 -0.14985098 0.13436684 -0.034600914 -0.11513041 0.0772377 0.1188852 0.26667058
0.093070604 0.111913435 0.046954185 -0.11662741 -0.120912105 0.017376326 0.35900524 -0.09518605
0.15079518 0.16078563 -0.13906136 -0.15302 0.0916857 0.096822456 -0.105152875 0.08219347
0.12060275 0.05049329 -0.14005516 0.16196693 0.15040435 0.0523836 -0.075260974 -0.07211417
-0.15283854 -0.0666378 0.01649855 -0.18421786 0.031036556 -0.092810966 -0.008174389 0.15906487
0.0601736 0.034486435 0.24291715 -0.12104155 0.04372151 -0.1466183 -0.16365929 -0.14111283
-0.120116614 -0.08126678 0.13421799 0.080161534 -0.14076369 -0.06768813 0.07366909 -0.11041178
0.10560794 -0.03774069 0.00042324775 0.07785237 0.11452596 0.087927446 0.05824508 -0.039662633
0.08763965 0.07337878 -0.13328132 -0.06848905 -0.15183002 -0.060690627 -0.042617165 -0.06793818
0.11966125 0.041846085 -6.4611435e-05 0.040315226 0.05894895 -0.11775483 -0.13068825 0.13896337
-0.109734185 -0.002450183 -0.004468396 0.060254216 0.107491605 0.10182972 -0.021754468 -0.20911455
-0.021687904 0.013557232 0.168135 -0.10700359 -0.12475252 0.10085 0.11634312 0.040812094
-0.006494552 0.14032367 0.16145594 -0.068217576 0.122672975 0.0191776 -0.013024995 -0.105104014
-0.17522962 -0.12494229 -0.08976528 0.060121518 -0.030739438 -0.17067084 0.15661596 -0.10601401
0.12771688 -0.25192782 -0.1253216 -0.07229961 0.024663359 -0.053976968 -0.14071417 0.11031158
00000000: 2d9f e6bd 9b38 74be 343f 4abd b6a8 19be
00000010: 60f0 c7bd 1e2b e73d 26f8 b33d eabe 9bbd
00000020: 1a73 023e c260 09be 50a5 5d3c de7e dc3d
00000030: 44bb 9fbd 2a72 133d 4392 ea3d f637 14be
00000040: 3241 b9bb ad5e d93c 446a 8bbd f56c 2d3e
00000050: b10a f2bd f0e8 4dbd 4f77 553d 4db2 e6bc
00000060: b648 4dbd f473 00bd d38d 25be 1bc4 073e
00000070: 857d 3fbe 600f 2c3d fe91 f73d 6554 ddbc
00000080: 2e86 cabd ecbb 0bbd 4b1b c53c 209d 93bd
00000090: 4a76 1fbc 7c8a aabd 17e7 f33c 0993 1abe
000000a0: 92b8 cbbd d999 02bd e238 dc3d 5100 ae3d
000000b0: 25fb a93c 57b2 2a3e 13da dcbc 32dd 143d
000000c0: 2c87 03be 0bf1 293d 0067 133d 8d41 95bd
000000d0: 9bd1 c5bd 8b3c 0d3e d70d 0a3e 3962 2a3e
000000e0: 78cc 083e 1b6f 26bd 55d5 13be 0f07 2abe
000000f0: 2b3a 32be 7216 4ebb 604d 1d3e 3ef9 d43d
00000100: 1c19 3bbe d3e7 873d 24b0 23bd 108c f23d
00000110: 2040 8bbd 5003 c43c d0bf 273e a593 c73d
00000120: 49a5 0f3d 8f2d 83bd 4c24 febc 02c9 bd3d
00000130: 7469 6e3d 7fd5 3abe 4e10 e3bd 440a 13be
00000140: adfb d2bd f166 4f3d 0066 283c 2c25 4d3d
00000150: 4172 2cbe c9ff b73d 3311 cb3d 6d4e e43d
00000160: c119 d93d 2a32 ad3d 6e9e aa3d 6637 f23c
00000170: 4a28 02bd 1020 dbbc fc06 9f3d b1b7 16ba
00000180: 8456 003e 95fe 7dbd d98e a23b 25bd 9fbd
00000190: dfce fc3d 29c5 023e d163 4abc f581 2f3d
000001a0: 83b7 153e 3ede bcbd 69b2 2ebe 8f31 b43c
000001b0: 95a0 0a3e 4051 a93b 5249 03be ce1a fcbd
000001c0: 808a a63a f7aa 303c 74cb 10be 2fb4 133e
000001d0: d7d4 71bd 7c6a 0abe 235b 1c3e 952c 2f3e
000001e0: d48a 003e 4a41 b0bc 289e 153e 4dc0 24be
000001f0: 8ed2 b13d 63e8 11be bd3b fbbd 0043 6ebb
00000200: 8f40 c7bd 6667 4f3e 4c32 083d 9413 933d
00000210: c8ce 4cbd 8c8a 673d f93c 3a3d 1c47 043d
00000220: 22a3 9cbc 8972 19be 7697 093e b0b9 0dbd
00000230: 7ec9 ebbd cd2e 9e3d 157a f33d 0c89 883e
00000240: cd9b be3d df32 e53d 0853 403d 5ada eebd
00000250: c4a0 f7bd cc58 8e3c 89cf b73e e7f0 c2bd
00000260: 0d6a 1a3e fda4 243e 1a66 0ebe 46b1 1cbe
00000270: b6c5 bb3d da4a c63d 645a d7bd 0d55 a83d
00000280: 93fe f63d 0dd2 4e3d 9f6a 0fbe a9da 253e
00000290: 9903 1a3e 3090 563d 6d22 9abd 98b0 93bd
000002a0: b581 1cbe 6679 88bd f827 873c 9ba3 3cbe
000002b0: 6040 fe3c ad13 bebd dfed 05bc e7e1 223e
000002c0: 9878 763d a641 0d3d 46bf 783e a2e4 f7bd
000002d0: 5315 333d 1c23 16be 4d96 27be e27f 10be
000002e0: b3ff f5bd 336f a6bd 7170 093e bb2b a43d
000002f0: 5b24 10be 13a0 8abd d2df 963d 921f e2bd
00000300: fa48 d83d fb95 1abd 5ae7 dd39 1071 9f3d
00000310: 968c ea3d 4e13 b43d 6592 6e3d 4975 22bd
00000320: 6b7c b33d 9d47 963d e67a 08be fd43 8cbd
00000330: 5479 1bbe bc96 78bd 568f 2ebd 2c23 8bbd
00000340: f510 f53d cd66 2b3d 0080 87b8 9421 253d
00000350: 7474 713d 7229 f1bd 24d3 05be 6a4c 0e3e
00000360: 51bc e0bd 4093 20bb 9f6b 92bb 20cd 763d
00000370: 8f24 dc3d 1a8c d03d 6d36 b2bc 2022 56be
00000380: d5aa b1bc 271f 5e3c 952b 2c3e b324 dbbd
00000390: 407e ffbd 728a ce3d 4d45 ee3d 952a 273d
000003a0: 40d0 d4bb 02b1 0f3e b554 253e a8b5 8bbd
000003b0: f83b fb3d 581a 9d3c ca66 55bc c640 d7bd
000003c0: 656f 33be bee1 ffbd dcd6 b7bd fb41 763d
000003d0: 46d1 fbbc 56c4 2ebe ef5f 203e e01d d9bd
000003e0: 37c8 023e affc 80be 4e54 00be d111 94bd
000003f0: d00a ca3c f416 5dbd 6017 10be 0aeb e13d

network.2.bias f4 [128]
-0.015509597 -0.01172991 0.06100877 -0.027871534 0.12502572 0.0 -0.011607816 -0.010195095
-0.026275922 0.03731526 -0.010750006 -0.011639703 -0.017764023 0.032674305 -0.009144527 0.040231112
0.21329315 0.019152587 0.0 -0.022271097 0.0 -0.015419199 -0.01391517 0.037488412
0.0 0.036984023 0.0 0.03075287 0.020367581 0.039990347 0.03944907 0.055933103
0.018041646 0.03877328 -0.013007749 0.0105236275 0.032606415 -0.008479112 0.043618314 0.0253371
0.030384762 0.035317622 0.032457683 0.0 -0.018258555 -0.019030852 -0.011903564 0.026126334
-0.008029287 0.190304 0.039498556 -0.014562811 -0.008442156 0.017989634 0.024320018 -0.012168534
0.0 -0.0070758015 -0.016705329 -0.006004903 0.043744903 -0.010076773 -0.00623744 0.034905497
0.022570105 -0.013603399 0.0 -0.00919658 0.0 0.0 0.0 -0.0060053878
0.027334508 0.0 0.0 0.034844335 0.0168371 -0.032102432 0.0 -0.012118849
0.03440323 0.045232728 0.03836943 0.039593644 -0.015716929 -0.025741167 0.008043914 -0.003167484
-0.01917176 -0.014070089 0.021987725 0.0 -0.007619384 0.0379994 0.11507736 0.030539388
-0.003752236 0.03439985 0.050872907 -0.034714397 -0.010172675 0.0 0.031283796 0.028831061
0.043917324 0.0 0.0 0.03590755 -0.013274312 -0.015601194 0.03655661 -0.01161448
0.0 0.14988235 0.0 -0.01865125 0.012377174 0.02328943 0.0 0.019369898
-0.014444267 -0.00996325 -0.020153806 0.031146273 0.022862263 -0.000114772156 -0.010270946 0.0
00000000: f71b 7ebc cf2e 40bc 55e4 793d d852 e4bc
00000010: be06 003e 0000 0000 b62e 3ebc 5409 27bc
00000020: 9a40 d7bc e3d7 183d cb20 30bc 74b4 3ebc
00000030: db85 91bc 7ed5 053d edd2 15bc 61c9 243d
00000040: 8569 5a3e e3e5 9c3c 0000 0000 e071 b6bc
00000050: 0000 0000 cfa0 7cbc 74fc 63bc 738d 193d
00000060: 0000 0000 8f7c 173d 0000 0000 71ed fb3c
00000070: ead9 a63c ebcc 233d 5995 213d 1c1a 653d
00000080: 13cc 933c bbd0 1e3d 741e 55bc 4b6b 2c3c
00000090: 4e8e 053d f9eb 0abc 1ea9 323d c08f cf3c
000000a0: 77e9 f83c 36a9 103d 59f2 043d 0000 0000
000000b0: f792 95bc 97e6 9bbc 2b07 43bc e506 d63c
000000c0: 458d 03bc 0ddf 423e 3dc9 213d db98 6ebc
000000d0: f850 0abc ff5e 933c c63a c73c 885e 47bc
000000e0: 0000 0000 20dc e7bb 9dd9 88bc c7c4 c4bb
000000f0: db2d 333d 0d19 25bc 7063 ccbb 11f9 0e3d
00000100: f1e4 b83c cae0 5ebc 0000 0000 41ad 16bc
00000110: 0000 0000 0000 0000 0000 0000 d8c8 c4bb
00000120: 9eec df3c 0000 0000 0000 0000 efb8 0e3d
00000130: f5ed 893c d77d 03bd 0000 0000 238e 46bc
00000140: 67ea 0c3d f445 393d 4329 1d3d f22c 223d
00000150: cac0 80bc 24df d2bc 9fca 033c 9095 4fbb
00000160: 180e 9dbc 3b86 66bc 9a1f b43c 0000 0000
00000170: 07ac f9bb 42a5 1b3d aead eb3d bd2d fa3c
00000180: 13e8 75bb dbe6 0c3d 1c60 503d af30 0ebd
00000190: 4bab 26bc 0000 0000 7023 003d 1e2f ec3c
000001a0: a7e2 333d 0000 0000 0000 0000 cc13 133d
000001b0: 807c 59bc 279c 7fbc 62bc 153d a94a 3ebc
000001c0: 0000 0000 c27a 193e 0000 0000 82ca 98bc
000001d0: a1c9 4a3c 7ac9 be3c 0000 0000 9fad 9e3c
000001e0: a6a7 6cbc e63c 23bc 9819 a5bc 7826 ff3c
000001f0: a449 bb3c d5b1 f0b8 7847 28bc 0000 0000

network.4.weight f4 [64, 128]
-0.15329875 0.09536502 -0.10272258 -0.11356227 0.11323002 0.056757048 0.14899014 -0.06655687
-0.0060423207 0.056344885 -0.06294978 0.06967861 -0.076642975 0.09547032 -0.08742765 -0.16440006
0.019403765 0.1598401 0.08809306 -0.023939095 0.0671594 -0.009158615 0.12677507 -0.04008798
-0.054177858 0.10555121 0.06323607 0.15724485 -0.15281343 -0.12610152 -0.07924365 0.021226702
-0.069299415 -0.022482872 0.032672748 0.041547332 -0.002134572 0.15402246 0.015986659 0.065802954
-0.13514599 -0.06953653 -0.073736794 -0.020633578 0.017295465 -0.13187134 -0.08661154 0.09604021
0.17037229 -0.010839597 -0.16346182 0.15570691 0.17794862 0.12690258 0.12891868 0.02549149
-0.14984119 0.17259717 0.087615274 0.10065852 -0.15630586 -0.16803573 -0.093294956 -0.0076129017
0.1669129 0.13757513 -0.12663214 0.14334941 0.036526382 0.10220252 0.042081073 -0.1228675
0.013835364 0.015551195 -0.009729937 0.15335816 -0.014364808 0.08704923 0.111065015 -0.08592103
-0.04787655 -0.106436655 0.07912922 -0.151418 -0.021087859 -0.14256401 0.099765316 -0.103820205
0.07150245 0.14428116 -0.083315775 -0.0440851 -0.14800608 -0.048066694 -0.068230666 -0.023571804
-0.004216741 -0.003402201 -0.17329088 0.105450585 -0.002343162 -0.082400456 -0.106060304 0.106526054
-0.114732884 0.14277191 0.14674039 -0.16604795 0.14586501 -0.013850582 -0.15184665 0.07434972
0.047843188 0.1594484 -0.042670146 0.008766597 -0.074229546 -0.12528074 0.17203154 0.13870183
0.078756355 0.067402735 0.17701806 -0.02410074 -0.108326316 -0.028914154 -0.069013275 0.07471214
-0.14597733 0.07510148 0.081278756 -0.101290606 0.043882422 -0.09115 0.055292007 -0.1309785
-0.044128817 0.029192941 0.013983294 0.14577411 -0.05844754 0.13100445 -0.1386165 -0.11474949
-0.112886444 -0.0371566 -0.15114313 -0.031099677 -0.11256854 -0.04507498 -0.04833068 -0.095068425
0.03696397 -0.091906436 0.06870867 0.03937235 0.06329629 0.09166043 -0.060609464 -0.15019386
0.17131689 -0.06399404 -0.12706278 -0.1489824 0.09387911 0.028667763 0.07749158 0.020302877
0.1568456 0.085759826 0.11284569 0.11073251 0.12189857 -0.1266031 0.013391197 0.11902979
-0.021788865 -0.049186 -0.08969404 0.029566959 -0.019898117 -0.163189 -0.07976684 -0.0316737
-0.06044562 -0.08966459 0.10856934 -0.10003877 0.028872639 -0.08912149 -0.019701943 -0.058270272
-0.15460962 0.1069337 0.13714842 0.009043932 -5.620718e-05 0.021697134 0.14198093 -0.08575522
0.13535522 0.10054357 0.06396745 -0.1291108 -0.060323503 -0.04817554 0.11211024 0.16218199
0.04570866 0.16402642 0.07777057 0.14740185 0.042261958 -0.069876894 -0.053217545 0.102091774
0.07545394 -0.12734173 -0.010405159 0.10176821 0.0823064 -0.12811829 0.08626507 0.016544962
0.0986135 -0.18105711 -0.15547007 -0.034185406 -0.12119045 0.1535673 0.10048494 -0.006904147
-0.12772986 0.17108794 -0.06829916 0.13201205 0.011172793 0.14526604 0.103423245 0.17202218
-0.1693379 0.027207837 -0.03303887 0.14912464 0.013617981 0.091773674 -0.054760642 -0.14796476
-0.027321199 -0.15109777 -0.022666028 -0.026290467 0.04571288 -0.12699544 -0.022222117 -0.16832185
00000000: 59fa 1cbe bc4e c33d 3760 d2bd 5693 e8bd
00000010: 24e5 e73d 147a 683d df90 183e f84e 88bd
00000020: a9fe c5bb e5c9 663d d0eb 80bd a9b3 8e3d
00000030: fef6 9cbd f185 c33d 450d b3bd 7d58 28be
00000040: a5f4 9e3c 20ad 233e 226a b43d ec1b c4bc
00000050: de8a 893d 040e 16bc 53d1 013e 4b33 24bd
00000060: 9ae9 5dbd 3c2b d83d ea81 813d cb04 213e
00000070: 207b 1cbe c220 01be 7f4a a2bd 9fe3 ad3c
00000080: daec 8dbd 002e b8bc dcd3 053d 892d 2a3d
00000090: 2de4 0bbb 10b8 1d3e 74f6 823c b3c3 863d
000000a0: b663 0abe 2b69 8ebd 5103 97bd c007 a9bc
000000b0: 38af 8d3c 4809 07be 6461 b1bd bbb0 c43d
000000c0: 1376 2e3e 9198 31bc 8962 27be a271 1f3e
000000d0: 2a38 363e c0f2 013e 4203 043e 87d3 d03c
000000e0: f86f 19be 50bd 303e a36f b33d 0e26 ce3d
000000f0: a50e 20be 8f11 2cbe 6d11 bfbd a675 f9bb
00000100: 37eb 2a3e 7fe0 0c3e dbab 01be 30ca 123e
00000110: b09c 153d 8e4f d13d 345d 2c3d f5a1 fbbd
00000120: b9ad 623c 70ca 7e3c 506a 1fbc ec09 1d3e
00000130: 5f5a 6bbc de46 b23d 0e76 e33d 5df7 afbd
00000140: 341a 44bd 76fb d9bd 800e a23d 520d 1bbe
00000150: 72c0 acbc 4dfc 11be c251 cc3d b09f d4bd
00000160: e06f 923d 71be 133e 76a1 aabd 9492 34bd
00000170: e88e 17be 95e1 44bd 85bc 8bbd a819 c1bc
00000180: 962c 8abb 76f7 5ebb 2a73 31be 7af6 d73d
00000190: bc8f 19bb 92c1 a8bd 2536 d9bd 552a da3d
000001a0: 13f9 eabd cd32 123e 1d43 163e 7908 2abe
000001b0: a35d 153e 8ded 62bc b07d 1bbe aa44 983d
000001c0: 38f7 433d 7146 233e e4c6 2ebd c6a1 0f3c
000001d0: a905 98bd 9849 00be 0929 303e da07 0e3e
000001e0: 034b a13d 720a 8a3d 3944 353e ea6e c5bc
000001f0: 30da ddbd 60dd ecbc d556 8dbd ae02 993d
00000200: 157b 15be cece 993d 7a75 a63d 7371 cfbd
00000210: 0ebe 333d daac babd df79 623d 3a1f 06be
00000220: 6bc0 34bd 0926 ef3c 301a 653c cf45 153e
00000230: b066 6fbd 0826 063e 7cf1 0dbe c801 ebbd
00000240: 0231 e7bd 8531 18bd 44c5 1abe c0c4 febc
00000250: 568a e6bd 8ba0 38bd 64f6 45bd 3cb3 c2bd
00000260: 8867 173d 7139 bcbd 22b7 8c3d e744 213d
00000270: 7ca1 813d 77b8 bb3d a141 78bd 6bcc 19be
00000280: b26d 2f3e 4f0f 83bd bf1c 02be d88e 18be
00000290: b143 c03d a8d8 ea3c e8b3 9e3d 3852 a63c
000002a0: 229c 203e d9a2 af3d a41b e73d bac7 e23d
000002b0: f5a5 f93d 3ea4 01be c066 5b3c e4c5 f33d
000002c0: 907e b2bc 4277 49bd 82b1 b7bd 6836 f23c
000002d0: 6001 a3bc 041b 27be cc5c a3bd 48bc 01bd
000002e0: d495 77bd 12a2 b7bd 9a59 de3d 20e1 ccbd
000002f0: 5086 ec3c 5485 b6bd f865 a1bc cfac 6ebd
00000300: fc51 1ebe 0e00 db3d a370 0c3e 002d 143c
00000310: 00c0 6bb8 30be b13c 7363 113e 6fa0 afbd
00000320: 8f9a 0a3e cae9 cd3d 5e01 833d 9f35 04be
00000330: c715 77bd b753 45bd 0e9a e53d 0913 263e
00000340: 0139 3b3d 8bf6 273e 2d46 9f3d 83f0 163e
00000350: e01a 2d3d 9e1b 8fbd a4fa 59bd 7e15 d13d
00000360: 9887 9a3d df65 02be 667a 2abc da6b d03d
00000370: 4290 a83d 7131 03be beab b03d 4d89 873c
00000380: e0f5 c93d 0967 39be 8c33 1fbe ff05 0cbd
00000390: b332 f8bd bf40 1d3e 0ccb cd3d 2f3c e2bb
000003a0: 9ecb 02be ad31 2f3e 6ee0 8bbd 2b2e 073e
000003b0: 170e 373c 9fc0 143e 91cf d33d 9526 303e
000003c0: ea66 2dbe f8e2 de3c c453 07bd 21b4 183e
000003d0: f41d 5f3c d6f3 bb3d b24c 60bd 1384 17be
000003e0: b5d0 dfbc 60b9 1abe 1bae b9bc 1b5f d7bc
000003f0: 6e3d 3b3d 180b 02be 280b b6bc 905c 2cbe

network.4.bias f4 [64]
0.012498081 -0.008924164 -0.013875543 0.0141044045 0.031104945 -0.028297935 0.033537142 -0.015577055
-0.016334504 0.01948423 0.015489125 -0.020807536 -0.01365914 0.0 -0.0069628186 0.031075153
0.020403584 0.0 0.018966904 0.0 -0.005228615 0.032947287 0.025228433 0.0
-0.0142723415 -0.028621702 0.05290304 -0.015524102 0.0 0.0 -0.0060333144 -0.009845616
-0.012578963 0.03222903 0.03264789 0.034444682 0.033494644 -0.007089075 0.03235536 -0.018926676
-0.020595534 0.0 -0.020665996 -0.013219023 -0.0120700905 -0.007896422 0.033204615 0.009522723
0.053602893 -0.019461636 0.0 -0.010733681 0.03329073 0.0 0.0 -0.0018213558
-0.01349921 0.007947892 -0.0052270647 0.0 0.0 0.030332986 -0.0067998753 -0.006811717
00000000: c0c4 4c3c a836 12bc 3f56 63bc 2916 673c
00000010: cccf fe3c 12d1 e7bc 3e5e 093d e736 7fbc
00000020: f0cf 85bc 649d 9f3c 19c6 7d3c 9174 aabc
00000030: 96ca 5fbc 0000 0000 5b28 e4bb 5291 fe3c
00000040: 6b25 a73c 0000 0000 7b60 9b3c 0000 0000
00000050: cd54 abbb bcf3 063d dcab ce3c 0000 0000
00000060: 8ad6 69bc 0f78 eabc dcb0 583d ce58 7ebc
00000070: 0000 0000 0000 0000 1cb3 c5bb 824f 21bc
00000080: ff17 4ebc 9602 043d cbb9 053d de15 0d3d
00000090: ae31 093d 794b e8bb 0e87 043d 1e0c 9bbc
000000a0: f7b7 a8bc 0000 0000 bc4b a9bc 9a94 58bc
000000b0: a1c1 45bc ff5f 01bc 9001 083d 3205 1c3c
000000c0: b58e 5b3d 026e 9fbc 0000 0000 52dc 2fbc
000000d0: dc5b 083d 0000 0000 0000 0000 8fba eeba
000000e0: ca2b 5dbc e037 023c cc47 abbb 0000 0000
000000f0: 0000 0000 e27c f83c 7dd1 debb d334 dfbb

network.6.weight f4 [18, 64]
0.054590493 0.082161956 -0.22372594 -0.0716802 -0.09879302 -0.17772952 -0.048825968 -0.16058855
-0.2087596 0.009763256 0.11698822 -0.0436693 0.25312153 0.0037246346 0.15831622 0.0885452
-0.10695112 0.06165275 -0.058567524 -0.2505275 0.26639694 -0.20104434 0.26135212 -0.05192551
-0.23266962 -0.21754085 -0.05227472 -0.16058792 -0.14072593 0.15972126 0.20265785 -0.10657076
0.12661147 0.18674736 -0.084028415 -0.14680865 -0.0044860025 -0.17267582 0.20053622 0.09493289
-0.22336102 0.2221623 0.03284567 -0.08578583 0.1457111 -0.19096628 0.113853544 0.057324294
-0.19740844 -0.027769564 -0.10385978 0.19972266 -0.08590706 -0.060588256 0.0812529 -0.24679711
0.14017203 0.28517693 0.18073738 -0.2032389 -0.17873976 0.03800197 -0.054237686 0.035857674
-0.026924172 -0.122248374 -0.006008864 -0.049745344 -0.14957474 -0.20153879 0.118418165 0.1126799
-0.0072772084 0.05255554 0.12618172 0.015856426 0.1556039 0.24322665 -0.24794705 -0.18614885
-0.25291476 0.113307804 0.16590874 0.03041774 -0.15391305 -0.11239458 -0.122302234 0.22309372
0.10701756 -0.1559587 -0.07264911 0.24185391 -0.16063128 0.08916035 0.15462652 0.063829854
-0.020554008 -0.03603699 0.18737915 0.046141528 0.22898917 -0.2018902 0.13589308 0.14787202
-0.11375107 0.15995702 -0.22062004 -0.060410198 0.21242349 -0.034421418 0.13086033 -0.14769791
0.13475163 -0.23325074 -0.19992173 0.05134533 0.03229366 -0.049626738 -0.0006362498 -0.17396866
0.07487166 0.17815475 0.07280703 0.044757843 0.1078186 0.023289116 -0.20355383 0.23413458
-0.12197016 0.2462277 0.14728354 -0.22425286 -0.18407148 0.068719365 0.095743604 0.06122232
-0.25579062 -0.07637872 -0.20364305 -0.027660638 0.14365406 0.062743604 0.2234607 0.08660601
-0.17706017 -0.07846534 -0.16212305 -0.06552425 0.1827054 0.2183812 0.09192569 -0.03788373
-0.19186911 -0.21610358 0.13550921 0.0012740907 0.16235423 0.25014734 0.24962206 0.2529167
-0.06337069 0.14078328 0.055670705 -0.100655265 -0.27335316 0.022056485 0.0683281 -0.18122002
-0.012287088 0.031502783 -0.04903782 -0.074227795 0.18971364 -0.13856964 -0.093884654 0.20191437
0.23446938 -0.24286857 -0.0012124777 -0.000359816 0.104546264 0.1687862 0.03906244 0.15710565
0.18057777 -0.123557165 -0.08861181 0.075371385 0.16464347 0.1473699 -0.18995307 -0.14143151
-0.19781937 -0.2262877 0.24203363 -0.17525388 -0.1504418 0.23560219 0.23979062 0.19210151
0.01043233 -0.28520936 -0.113190554 0.006184844 -0.084244676 -0.11096437 -0.1785672 0.117808856
0.12388744 -0.039163098 -0.19796003 0.228378 -0.07155373 0.01369571 0.019968169 -0.13707271
0.24935614 0.022339607 -0.09368106 0.15597078 -0.19162583 0.029929042 -0.26467708 -0.13903482
-0.12262454 -0.16683984 0.24072823 -0.0059999037 0.22946864 0.13903898 -0.18520701 -0.03448345
0.019940134 -0.059482217 -0.042925198 0.08393316 0.22487889 -0.18807438 -0.19820407 -0.07163474
0.23070411 0.14857556 0.23038226 0.21079022 0.059822753 -0.2087734 0.2060298 -0.24707136
-0.040109582 0.20261481 -0.0971008 0.06421065 0.0884389 -0.021350387 -0.19962198 -0.1370165
00000000: 489a 5f3d 8744 a83d 6a18 65be 12cd 92bd
00000010: ff53 cabd bafe 35be bdfd 47bd 5371 24be
00000020: 14c5 55be 10f6 1f3c 8597 ef3d 94de 32bd
00000030: 2599 813e 0019 743b a61d 223e 3057 b53d
00000040: 3009 dbbd 9887 7c3d 80e4 6fbd 2445 80be
00000050: 2e65 883e 91de 4dbe f2cf 853e d8af 54bd
00000060: f240 6ebe 07c3 5ebe 041e 56bd 2971 24be
00000070: 751a 10be f88d 233e 8a85 4f3e c541 dabd
00000080: 70a6 013e b33a 3f3e 1717 acbd 0255 16be
00000090: 51ff 92bb eed1 30be 5e59 4d3e 2d6c c23d
000000a0: c0b8 64be 847e 633e 2e89 063d 7bb0 afbd
000000b0: 4a35 153e aa8c 43be 0c2c e93d e1cc 6a3d
000000c0: 7025 4abe ff7c e3bc 70b4 d4bd 1984 4c3e
000000d0: 0af0 afbd 642b 78bd ec67 a63d 62b8 7cbe
000000e0: 4289 0f3e b602 923e 3813 393e dc1d 50be
000000f0: 8e07 37be f4a7 1b3d 5628 5ebd 7fdf 123d
00000100: 1590 dcbc 5b5d fabd 01e6 c4bb c6c1 4bbd
00000110: 1f2a 19be 2f60 4ebe 3985 f23d b8c4 e63d
00000120: a675 eebb 7a44 573d c835 013e 56e5 813c
00000130: a156 1f3e 6810 793e d5e5 7dbe ce9d 3ebe
00000140: 0b7e 81be ec0d e83d fbe3 293e a02e f93c
00000150: 629b 1dbe 212f e6bd 9879 fabd ae72 643e
00000160: 062c db3d a3b3 1fbe 0ec9 94bd 8da8 773e
00000170: 877c 24be b499 b63d 6a56 1e3e 3ab9 823d
00000180: e160 a8bc 869b 13bd 52e0 3f3e e6fe 3c3d
00000190: 237c 6a3e 4ebc 4ebe 8e27 0b3e c36b 173e
000001a0: 52f6 e8bd c6cb 233e 38ea 61be af70 77bd
000001b0: 8b85 593e 79fd 0cbd 4000 063e 1f3e 17be
000001c0: 55fc 093e 48d9 6ebe 48b8 4cbe 7b4f 523d
000001d0: 5b46 043d 6845 4bbd 00ca 26ba d724 32be
000001e0: 5056 993d 336e 363e da1b 953d 0054 373d
000001f0: 00d0 dc3d d1c8 be3c 6a70 50be fac0 6f3e
00000200: 7ecb f9bd 1d23 7c3e 7fd1 163e 8ba2 65be
00000210: 3c7d 3cbe bdbc 8c3d 3915 c43d 41c4 7a3d
00000220: fdf6 82be 726c 9cbd ce87 50be 9098 e2bc
00000230: 0d1a 133e b87f 803d e2d2 643e 7e5e b13d
00000240: 434f 35be 70b2 a0bd 9603 26be 9431 86bd
00000250: 2017 3b3e 529f 5f3e 8943 bc3d f82b 1bbd
00000260: 5679 44be 424a 5dbe edc2 0a3e 64ff a63a
00000270: 3040 263e 5013 803e ed9c 7f3e 4c7e 813e
00000280: 7ec8 81bd 7e29 103e f706 643d 5924 cebd
00000290: f2f4 8bbe cdaf b43c 9aef 8b3d be91 39be
000002a0: c84f 49bc 1009 013d e2db 48bd be04 98bd
000002b0: 4b44 423e 33e5 0dbe 9946 c0bd a4c2 4e3e
000002c0: be18 703e 8ab2 78be 00ec 9eba b0a5 bcb9
000002d0: 5a1c d63d 4ad6 2c3e f0ff 1f3d 4ee0 203e
000002e0: 61e9 383e 8a0b fdbd 1c7a b5bd 505c 9a3d
000002f0: 4c98 283e 23e8 163e 0f83 42be 6cd3 10be
00000300: 2991 4abe f6b7 67be aad7 773e c175 33be
00000310: 6a0d 1abe b341 713e ac8b 753e 42b6 443e
00000320: 5dec 2a3c f606 92be 73d0 e7bd 3baa ca3b
00000330: 7988 acbd 4a41 e3bd 52da 36be c545 f13d
00000340: b3b8 fd3d 7c69 20bd 09b6 4abe ecdb 693e
00000350: c38a 92bd f963 603c 4994 a33c ca5c 0cbe
00000360: 3757 7f3e 8d01 b73c dbdb bfbd ceb6 1f3e
00000370: 9039 44be c02d f53c c183 87be 255f 0ebe
00000380: 9322 fbbd 10d8 2abe 7681 763e d79a c4bb
00000390: d4f9 6a3e 3c60 0e3e e8a6 3dbe 853e 0dbd
000003a0: 7e59 a33c a0a3 73bd 55d2 2fbd 26e5 ab3d
000003b0: a746 663e 9296 40be 02f6 4abe 3cb5 92bd
000003c0: b33d 6c3e 3124 183e 54e9 6b3e 64d9 573e
000003d0: b408 753d b2c8 55be 7af9 523e 4600 7dbe
000003e0: f249 24bd 427a 4f3e c9dc c6bd e080 833d
000003f0: 741f b53d 02e7 aebc b469 4cbe 0e4e 0cbe

network.6.bias f4 [18]
0.034580223 0.029250825 -0.017178753 -0.0029846996 -0.0058066677 0.039592445 0.04215561 0.042930033
0.00281689 0.030161327 0.031776406 0.021181455 0.024895696 0.028372068 0.03713496 0.03032972
0.029596739 0.03266732
00000000: fea3 0d3d 6d9f ef3c 75ba 8cbc f39a 43bb
00000010: dc45 bebb b02b 223d 5cab 2c3d 67d7 2f3d
00000020: 929b 383b e314 f73c fa27 023d bb84 ad3c
00000030: 0ff2 cb3c 8a6c e83c d41a 183d 0876 f83c
00000040: dc74 f23c 2bce 053d

exp_avg f4 [64, 6]
-2.1830667e-06 -1.6610727e-06 -2.4873987e-06 -5.702751e-07 -5.892309e-07 -1.3507524e-06 -9.899796e-06 -7.0501023e-06
-1.2083654e-05 -2.5931733e-06 -2.846285e-06 -5.992281e-06 -1.0414996e-06 -6.6926043e-07 -1.3847286e-06 -2.9188018e-07
-3.4792708e-07 -5.340854e-07 -2.0580387e-06 -1.4026881e-06 -2.1768913e-06 -5.004562e-07 -5.0491343e-07 -1.308304e-06
0.0 0.0 0.0 0.0 0.0 0.0 0.0 0.0
0.0 0.0 0.0 0.0 -3.1624626e-07 -1.3065726e-07 -3.9503146e-07 -1.3562153e-07
-6.9504615e-08 -2.3024523e-07 1.5670025e-06 1.271974e-06 2.064111e-06 3.907581e-07 4.887437e-07 8.541133e-07
1.0177675e-06 7.17893e-07 1.4505327e-06 3.054327e-07 3.7463067e-07 4.4861994e-07 1.2083525e-06 9.771028e-07
1.7781291e-06 3.858734e-07 4.479612e-07 5.913157e-07 -1.3454993e-06 -7.711129e-07 -1.3932572e-06 -2.7108456e-07
-2.3894555e-07 -8.4940933e-07 0.0 0.0 0.0 0.0 0.0 0.0
8.883175e-07 6.4589614e-07 1.1826589e-06 2.4199707e-07 2.7313033e-07 4.9848063e-07 -1.3732729e-07 -1.5993977e-07
-1.799727e-07 -1.6942254e-08 -1.160736e-09 -7.8767094e-08 6.049542e-07 2.658555e-07 8.1923946e-07 1.5155074e-07
2.0805187e-07 2.3678676e-07 -4.879199e-06 -3.3145243e-06 -5.8349888e-06 -1.2704959e-06 -1.403002e-06 -3.1960874e-06
5.4109634e-08 -5.005323e-08 9.21345e-09 -2.4325861e-09 -2.1200673e-08 -5.3652496e-08 -1.0355842e-06 -8.7086903e-07
-1.3434442e-06 -2.5540226e-07 -3.363659e-07 -5.67935e-07 0.0 0.0 0.0 0.0
0.0 0.0 0.0 0.0 0.0 0.0 0.0 0.0
2.932357e-06 2.2505335e-06 3.7877385e-06 7.7881424e-07 9.2763196e-07 1.4933689e-06 -7.862358e-07 -3.4050584e-07
-9.17708e-07 -2.0017478e-07 -1.9001908e-07 -4.3631584e-07 -9.17419e-06 -6.5630397e-06 -1.1042819e-05 -2.420015e-06
-2.6081289e-06 -5.689298e-06 2.8382117e-06 2.1102962e-06 3.632976e-06 7.554611e-07 8.701097e-07 1.5979151e-06
2.6793871e-14 3.2004015e-14 1.4518018e-14 3.535996e-15 1.0590984e-14 1.4869536e-14 0.0 0.0
0.0 0.0 0.0 0.0 8.567137e-07 6.250674e-07 1.2760182e-06 2.1819376e-07
3.6116384e-07 1.4009086e-07 -1.599129e-07 -8.707439e-08 -1.4107438e-07 -4.2695607e-08 -4.1334957e-08 -5.021895e-08
2.690513e-07 2.1084271e-07 5.100214e-07 1.4098448e-07 1.6001806e-07 1.5952509e-07 0.0 0.0
0.0 0.0 0.0 0.0 -2.2119154e-07 -2.6595285e-07 -6.1275995e-07 -6.8466385e-08
-1.7529418e-07 -1.3611195e-07 -8.56354e-06 -6.3087527e-06 -1.0647116e-05 -2.2439735e-06 -2.4846538e-06 -4.890909e-06
-2.3557955e-06 -2.0952739e-06 -3.3538781e-06 -6.84419e-07 -8.0142684e-07 -1.4443754e-06 9.2731796e-07 7.921901e-07
1.4484127e-06 3.416553e-07 3.8569473e-07 5.597625e-07 2.1478907e-06 1.6438232e-06 2.8204213e-06 5.829825e-07
6.620576e-07 1.1017826e-06 -2.5649508e-06 -2.0892267e-06 -3.9151696e-06 -7.846675e-07 -9.236114e-07 -1.4378602e-06
-1.683279e-12 -1.9381701e-12 -8.3494393e-13 -1.8413014e-13 -2.9156929e-13 -8.524264e-13 0.0 0.0
0.0 0.0 0.0 0.0 2.408375e-07 1.4078783e-07 3.7229495e-07 -3.2459443e-08
6.383665e-08 8.1877744e-08 4.5296318e-07 2.6456374e-07 8.437885e-07 1.5672188e-07 2.464181e-07 1.4349001e-07
0.0 0.0 0.0 0.0 0.0 0.0 9.999719e-07 8.003205e-07
1.3794128e-06 2.2357312e-07 3.1855177e-07 3.1260387e-07 0.0 0.0 0.0 0.0
00000000: cd80 12b6 06f2 deb5 2fed 26b6 0215 19b5
00000010: a42b 1eb5 804b b5b5 4d17 26b7 eb8f ecb6
00000020: e6ba 4ab7 6106 2eb6 ce02 3fb6 4d11 c9b6
00000030: a7c9 8bb5 3aa7 33b5 eada b9b5 b5b3 9cb4
00000040: bcca bab4 125e 0fb5 d61c 0ab6 ff43 bcb5
00000050: b516 12b6 1757 06b5 6389 07b5 fc98 afb5
00000060: 0000 0000 0000 0000 0000 0000 0000 0000
00000070: 0000 0000 0000 0000 0000 0000 0000 0000
00000080: 0000 0000 0000 0000 0000 0000 0000 0000
00000090: 8ec8 a9b4 cb4a 0cb4 b614 d4b4 5d9f 11b4
000000a0: 9142 95b3 5439 77b4 cc51 d235 b2b8 aa35
000000b0: 2885 0a36 62c9 d134 3632 0335 3846 6535
000000c0: 3a9a 8835 3bb5 4035 edaf c235 5afa a334
000000d0: d920 c934 dbd9 f034 ad2e a235 ff24 8335
000000e0: 0da8 ee35 092a cf34 527f f034 e8ba 1e35
000000f0: 0197 b4b5 7afe 4eb5 f4ff bab5 9489 91b4
00000100: 6d48 80b4 f702 64b5 0000 0000 0000 0000
00000110: 0000 0000 0000 0000 0000 0000 0000 0000
00000120: b774 6e35 a561 2d35 dabb 9e35 d3eb 8134
00000130: bfa2 9234 54cf 0535 3d74 13b4 e9bb 2bb4
00000140: 853e 41b4 6988 91b2 c487 9fb0 ab26 a9b3
00000150: 2364 2235 e7ba 8e34 b5e9 5b35 f3b9 2234
00000160: dd64 5f34 733f 7e34 00b8 a3b6 186f 5eb6
00000170: 2cca c3b6 e885 aab5 c84e bcb5 5d7c 56b6
00000180: 2c66 6833 1cfa 56b3 2e49 1e32 822a 27b1
00000190: c61c b6b2 8b6f 66b3 67fe 8ab5 aac5 69b5
000001a0: 6450 b4b5 381e 89b4 c795 b4b4 3274 18b5
000001b0: 0000 0000 0000 0000 0000 0000 0000 0000
000001c0: 0000 0000 0000 0000 0000 0000 0000 0000
000001d0: 0000 0000 0000 0000 0000 0000 0000 0000
000001e0: 82c9 4436 df07 1736 da30 7e36 b50f 5135
000001f0: 6202 7935 c46f c835 b60d 53b5 c4ce b6b4
00000200: 6a58 76b5 a0ef 56b4 0c08 4cb4 cb3e eab4
00000210: d9ea 19b7 1538 dcb6 8c44 39b7 8b67 22b6
00000220: 5007 2fb6 b3e6 beb6 1b78 3e36 9d9e 0d36
00000230: 0dce 7336 e4ca 4a35 7c91 6935 f277 d635
00000240: 7656 f128 1e22 1029 45c4 8228 9dcb 7e27
00000250: 4bca 3e28 d1ee 8528 0000 0000 0000 0000
00000260: 0000 0000 0000 0000 0000 0000 0000 0000
00000270: ebf8 6535 4eca 2735 a743 ab35 a548 6a34
00000280: fbe5 c134 e26b 1634 86b4 2bb4 a7fd bab3
00000290: 3b7a 17b4 5160 37b3 4488 31b3 52b0 57b3
000002a0: 2172 9034 0164 6234 67e8 0835 8561 1734
000002b0: 6ed1 2b34 ec49 2b34 0000 0000 0000 0000
000002c0: 0000 0000 0000 0000 0000 0000 0000 0000
000002d0: ab80 6db4 48c8 8eb4 8b7c 24b5 cb07 93b3
000002e0: 7f38 3cb4 2b26 12b4 20ac 0fb7 c6af d3b6
000002f0: 04a1 32b7 2c97 16b6 07be 26b6 971c a4b6
00000300: 4218 1eb6 889c 0cb6 3013 61b6 eab8 37b5
00000310: a221 57b5 5cdc c1b5 ceec 7835 e4a6 5435
00000320: 1567 c235 bf6c b734 7b11 cf34 9642 1635
00000330: 7b24 1036 56a1 dc35 7846 3d36 417e 1c35
00000340: 40b8 3135 f6e0 9335 8521 2cb6 a434 0cb6
00000350: 0d5f 83b6 f1a1 52b5 18ee 77b5 80fc c0b5
00000360: 84e6 ecab f862 08ac 0d04 6bab e64f 4faa
00000370: 9023 a4aa ccef 6fab 0000 0000 0000 0000
00000380: 0000 0000 0000 0000 0000 0000 0000 0000
00000390: 744c 8134 772b 1734 d4df c734 8969 0bb3
000003a0: 9216 8933 c4d4 af33 c92e f334 5d09 8e34
000003b0: b480 6235 6247 2834 724b 8434 3c12 1a34
000003c0: 0000 0000 0000 0000 0000 0000 0000 0000
000003d0: 0000 0000 0000 0000 c636 8635 9bd5 5635
000003e0: 4324 b935 500f 7034 6c05 ab34 f3d3 a734
000003f0: 0000 0000 0000 0000 0000 0000 0000 0000

exp_avg_sq f4 [64, 6]
4.3594867e-10 5.353445e-10 8.341365e-10 4.7239174e-11 6.505942e-11 1.3533392e-10 1.7558358e-08 2.150324e-08
3.365407e-08 1.876659e-09 2.5995264e-09 5.363565e-09 2.5266508e-10 3.1023306e-10 4.865602e-10 2.6821231e-11
3.725013e-11 7.651435e-11 7.4103595e-10 9.073271e-10 1.419417e-09 7.9958526e-11 1.102752e-10 2.2848864e-10
0.0 0.0 0.0 0.0 0.0 0.0 0.0 0.0
0.0 0.0 0.0 0.0 5.339927e-12 5.565174e-12 1.3243984e-11 5.665446e-13
8.86043e-13 1.8158064e-12 1.1523334e-10 1.4202438e-10 2.2128674e-10 1.23600696e-11 1.7111175e-11 3.5485323e-11
9.95487e-11 1.2289067e-10 1.9061322e-10 1.0598682e-11 1.4615127e-11 3.0194545e-11 8.284895e-11 1.02734696e-10
1.6176509e-10 8.761907e-12 1.2140961e-11 2.486151e-11 4.9032595e-10 6.0043337e-10 9.40278e-10 5.3088357e-11
7.31673e-11 1.5120834e-10 0.0 0.0 0.0 0.0 0.0 0.0
4.7320384e-11 5.880191e-11 9.139849e-11 5.161938e-12 7.041784e-12 1.475307e-11 6.0282036e-11 7.371673e-11
1.1398434e-10 6.4269883e-12 8.899972e-12 1.8477551e-11 4.7285675e-10 5.797045e-10 9.014496e-10 4.994657e-11
6.925181e-11 1.4288896e-10 5.3519122e-09 6.5515406e-09 1.027677e-08 5.7426996e-10 7.9450707e-10 1.6382214e-09
1.5750909e-10 1.9282927e-10 3.0481687e-10 1.675304e-11 2.3388293e-11 4.7855865e-11 1.8126693e-10 2.2119755e-10
3.4744665e-10 1.9275042e-11 2.6832349e-11 5.536489e-11 0.0 0.0 0.0 0.0
0.0 0.0 0.0 0.0 0.0 0.0 0.0 0.0
6.621465e-10 8.13481e-10 1.2655073e-09 7.0268694e-11 9.7344674e-11 2.0075873e-10 9.720761e-11 1.202823e-10
1.896664e-10 1.05623175e-11 1.4546794e-11 2.990747e-11 1.46123424e-08 1.7936792e-08 2.8067998e-08 1.5647357e-09
2.1636555e-09 4.4679496e-09 1.4398788e-09 1.7645336e-09 2.7664802e-09 1.5345084e-10 2.1301583e-10 4.387185e-10
2.8470333e-14 4.2803177e-14 1.664753e-14 2.0785587e-15 4.676353e-15 8.500783e-15 0.0 0.0
0.0 0.0 0.0 0.0 1.4647496e-10 1.8094594e-10 2.8113725e-10 1.5389044e-11
2.1343156e-11 4.43387e-11 1.1704499e-12 1.4833533e-12 3.726659e-12 1.5109062e-13 1.9324965e-13 4.503837e-13
2.5076167e-11 3.0247152e-11 4.8359258e-11 2.67919e-12 3.712382e-12 7.5506355e-12 0.0 0.0
0.0 0.0 0.0 0.0 2.397508e-12 3.42161e-12 1.8107519e-11 5.850113e-13
1.0163063e-12 9.409217e-13 1.3577246e-08 1.664137e-08 2.6025866e-08 1.4480321e-09 2.006572e-09 4.137142e-09
6.673468e-10 8.1755513e-10 1.277722e-09 7.113078e-11 9.855636e-11 2.0366232e-10 1.2433557e-10 1.5375785e-10
2.3391586e-10 1.3155643e-11 1.808847e-11 3.7741876e-11 4.5623258e-10 5.609706e-10 8.804559e-10 4.8502806e-11
6.735666e-11 1.385627e-10 1.1893028e-09 1.4601357e-09 2.185783e-09 1.2379099e-10 1.6989503e-10 3.5866507e-10
1.0302124e-12 1.2771224e-12 2.9260234e-13 1.8784384e-14 2.852352e-14 3.1525284e-13 0.0 0.0
0.0 0.0 0.0 0.0 3.4403973e-12 3.1042367e-12 7.668853e-12 3.925095e-13
5.9870316e-13 1.2780959e-12 6.1318756e-11 7.495412e-11 1.1873934e-10 6.4803458e-12 8.997831e-12 1.843929e-11
0.0 0.0 0.0 0.0 0.0 0.0 1.2583631e-10 1.5550046e-10
2.3909874e-10 1.3167496e-11 1.8280794e-11 3.797689e-11 0.0 0.0 0.0 0.0
00000000: 52aa ef2f 8527 1330 2349 6530 95c2 4f2e
00000010: 3311 8f2e 1dcd 142f 3dd3 9632 20b6 b832
00000020: 0b8b 1033 89f6 0031 5aa3 3231 6b4a b831
00000030: 73e7 8a2f 6c8d aa2f a1be 0530 0bec eb2d
00000040: ebd3 232e c041 a82e c5b1 4b30 7867 7930
00000050: 4c15 c330 a6d4 af2e 6b7f f22e d639 7b2f
00000060: 0000 0000 0000 0000 0000 0000 0000 0000
00000070: 0000 0000 0000 0000 0000 0000 0000 0000
00000080: 0000 0000 0000 0000 0000 0000 0000 0000
00000090: c9e1 bb2c a2ce c32c 9afd 682d d777 1f2b
000000a0: 2066 792b 528d ff2b 9a66 fd2e 4f28 1c2f
000000b0: ae4e 732f ce70 592d f182 962d ec10 1c2e
000000c0: f0e8 da2e a61e 072f da94 512f 3874 3a2d
000000d0: 578e 802d 09cc 042e d02f b62e 7eea e12e
000000e0: d3dc 312f 1f24 1a2d 0796 552d 25af da2d
000000f0: 9fc7 0630 be0b 2530 173b 8130 2d7c 692e
00000100: 87e5 a02e 5d41 262f 0000 0000 0000 0000
00000110: 0000 0000 0000 0000 0000 0000 0000 0000
00000120: 041e 502e 884e 812e c7fc c82e 9b9e b52c
00000130: c0c2 f72c f6c4 812d c58f 842e d41a a22e
00000140: 7ba7 fa2e 2a21 e22c e991 1c2d bf87 a22d
00000150: 56fa 0130 1459 1f30 e0c9 7730 d7aa 5b2e
00000160: 4e49 982e ab1b 1d2f ebe3 b731 f61b e131
00000170: b68d 3032 a8da 1d30 7764 5a30 cb27 e130
00000180: de2e 2d2f 9d04 542f 2993 a72f 7e5c 932d
00000190: c1b9 cd2d ea78 522e 1b4e 472f 9335 732f
000001a0: c502 bf2f 898b a92d 1405 ec2d 537f 732e
000001b0: 0000 0000 0000 0000 0000 0000 0000 0000
000001c0: 0000 0000 0000 0000 0000 0000 0000 0000
000001d0: 0000 0000 0000 0000 0000 0000 0000 0000
000001e0: 6b02 3630 a39b 5f30 14ee ad30 c285 9a2e
000001f0: 2e10 d62e 8fbc 5c2f 05c3 d52e 7540 042f
00000200: 588a 502f 73d0 392d f0e8 7f2d d188 032e
00000210: c309 7b32 6c13 9a32 2e1a f132 3e0e d730
00000220: 6eaf 1431 8084 9931 3be5 c530 0284 f230
00000230: 6f1c 3e31 92b8 282f a036 6a2f 2430 f12f
00000240: 0f38 0029 b4c4 4029 97f2 9528 a4c6 1527
00000250: be7b a827 f122 1928 0000 0000 0000 0000
00000260: 0000 0000 0000 0000 0000 0000 0000 0000
00000270: 090d 212f c1f3 462f 8d8e 9a2f 0c5d 872d
00000280: 84bc bb2d f000 432e e7b9 a42b 6fc3 d02b
00000290: c31e 832c e81c 2a2a 6b94 592a 228b fd2a
000002a0: 8292 dc2d 4407 052e afaf 542e ff87 3c2c
000002b0: 2a9e 822c 0ad5 042d 0000 0000 0000 0000
000002c0: 0000 0000 0000 0000 0000 0000 0000 0000
000002d0: aab5 282c 3fc6 702c 8246 9f2d 82aa 242b
000002e0: 4b08 8f2b 476c 842b 5c41 6932 c2f2 8e32
000002f0: 7c8f df32 1a04 c730 fde3 0931 b026 8e31
00000300: 5b70 3730 54ba 6030 d99b af30 126b 9c2e
00000310: 4cba d82e d9ed 5f2f 5ab5 082f fd0e 292f
00000320: bb98 802f c06f 672d 9d1b 9f2d 93fd 252e
00000330: 07d1 fa2f cc32 1a30 9304 7230 4e51 552e
00000340: 6e1e 942e ef59 182f df74 a330 f5ad c830
00000350: b434 1631 111c 082f 33cd 3a2f 9f2d c52f
00000360: 50fd 902b 2fbd b32b 71b8 a42a d731 a928
00000370: 6175 0029 b978 b12a 0000 0000 0000 0000
00000380: 0000 0000 0000 0000 0000 0000 0000 0000
00000390: b018 722c f570 5a2c 72e9 062d 95f6 dc2a
000003a0: 1c85 282b 42e0 b32b 64d7 862e 6bd3 a42e
000003b0: 278e 022f c401 e42c a14a 1e2d 9731 a22d
000003c0: 0000 0000 0000 0000 0000 0000 0000 0000
000003d0: 0000 0000 0000 0000 c65b 0a2f 7df9 2a2f
000003e0: 2872 832f 21a5 672d b0cc a02d 2d06 272e
000003f0: 0000 0000 0000 0000 0000 0000 0000 0000

exp_avg f4 [64]
-2.057038e-06 -1.2478526e-05 -1.5981761e-06 -2.2202262e-06 0.0 0.0 -2.7127217e-07 1.727447e-06
1.4710802e-06 1.6578912e-06 -1.3804568e-06 0.0 1.020188e-06 -2.3300645e-07 1.373829e-06 -6.159069e-06
4.2182288e-07 -1.3766644e-06 0.0 0.0 3.6128765e-06 -7.167726e-07 -1.1405503e-05 3.809916e-06
2.1975116e-14 0.0 1.4065093e-06 -9.965106e-08 4.6523525e-07 0.0 -3.2200268e-07 -1.121707e-05
-3.1193124e-06 1.3997083e-06 2.7548147e-06 -3.8278095e-06 -1.2563613e-12 0.0 4.9484417e-08 9.30544e-07
0.0 1.3588034e-06 0.0 1.2385112e-06 -2.130952e-06 0.0 -1.0727147e-06 5.1779207e-08
0.0 -1.0411585e-05 -7.673515e-06 2.2754391e-07 1.2686921e-08 0.0 0.0 0.0
-4.1548213e-07 5.691004e-07 -9.519939e-07 -1.5325551e-06 0.0 4.0201153e-06 1.9659942e-06 0.0
00000000: a50b 0ab6 dc5a 51b7 ea80 d6b5 32ff 14b6
00000010: 0000 0000 0000 0000 5da3 91b4 a1da e735
00000020: ee71 c535 b584 de35 2248 b9b5 0000 0000
00000030: 65ed 8835 5330 7ab4 6864 b835 00aa ceb6
00000040: e576 e234 d4c5 b8b5 0000 0000 0000 0000
00000050: bf74 7236 3d68 40b5 435a 3fb7 dcad 7f36
00000060: 2bef c528 0000 0000 4bc7 bc35 c0ff d5b3
00000070: 72c5 f934 0000 0000 b6df acb4 f330 3cb7
00000080: 6155 51b6 9cdd bb35 5bdf 3836 a270 80b6
00000090: 30d1 b0ab 0000 0000 b188 5433 7fca 7935
000000a0: 0000 0000 2160 b635 0000 0000 ec3a a635
000000b0: 7a01 0fb6 0000 0000 32fa 8fb5 d763 5e33
000000c0: 0000 0000 6bad 2eb7 7fbd 00b7 cb52 7434
000000d0: abf5 5932 0000 0000 0000 0000 0000 0000
000000e0: 6e0f dfb4 48c4 1835 868c 7fb5 31b2 cdb5
000000f0: 0000 0000 87e4 8636 86ef 0336 0000 0000

exp_avg_sq f4 [64]
5.24783e-10 2.0661693e-08 2.934201e-10 8.829914e-10 0.0 0.0 6.5823826e-12 1.3585887e-10
1.1485542e-10 9.4431914e-11 5.85212e-10 0.0 5.6359986e-11 7.130235e-11 5.482863e-10 6.334857e-09
1.8476853e-10 2.1126992e-10 0.0 0.0 7.6928963e-10 1.1741148e-10 1.72454e-08 1.6855334e-09
2.7291473e-14 0.0 1.6674515e-10 1.683162e-12 2.9577434e-11 0.0 6.0545943e-12 1.5914475e-08
7.8209766e-10 1.4371515e-10 5.3172716e-10 1.3598467e-09 6.3585573e-13 0.0 4.312591e-12 7.038177e-11
0.0 1.4423623e-10 0.0 4.0869252e-10 5.1349586e-10 0.0 1.1130269e-10 9.522928e-11
0.0 1.4199059e-08 8.505059e-09 7.896649e-11 2.4972457e-14 0.0 0.0 0.0
1.1258687e-10 7.175728e-12 1.1810872e-10 4.3974135e-10 0.0 1.2694572e-09 3.4212932e-10 0.0
00000000: 5240 1030 8b7b b132 354f a12f ffb6 7230
00000010: 0000 0000 0000 0000 d598 e72c df60 152f
00000020: da91 fc2e 71a8 cf2e a2dc 2030 0000 0000
00000030: b4df 772e a8cb 9c2e 38b6 1630 fea9 d931
00000040: b827 4b2f 324b 682f 0000 0000 0000 0000
00000050: f275 5330 6518 012f 0923 9432 6fa8 e730
00000060: dad1 f528 0000 0000 9656 372f 4de2 ec2b
00000070: 3b15 022e 0000 0000 f006 d52c 4db4 8832
00000080: 3bfb 5630 3804 1e2f f928 1230 5ae5 ba30
00000090: 3cfa 322b 0000 0000 5ebc 972c 6ac5 9a2e
000000a0: 0000 0000 e496 1e2f 0000 0000 5cae e02f
000000b0: 0f26 0d30 0000 0000 d8c1 f42e 5269 d12e
000000c0: 0000 0000 1ff0 7332 a51d 1232 2fa6 ad2e
000000d0: 91ee e028 0000 0000 0000 0000 0000 0000
000000e0: c694 f72e 3679 fc2c a6dc 012f 18c0 f12f
000000f0: 0000 0000 0e79 ae30 6c16 bc2f 0000 0000
